----------------------------------------
AdaptiveWM Model: 
EncoderDecoder(
  (encoder): Encoder(
    (encode_layers): PreLayers(
      (layers): Sequential(
        (fc_in_0): Linear(in_features=1536, out_features=1536, bias=True)
        (dropout_0): Dropout(p=0, inplace=False)
        (fc_in_1): Linear(in_features=1536, out_features=1536, bias=True)
        (dropout_1): Dropout(p=0, inplace=False)
        (fc_in_2): Linear(in_features=1536, out_features=1536, bias=True)
        (dropout_2): Dropout(p=0, inplace=False)
        (fc_in_3): Linear(in_features=1536, out_features=1536, bias=True)
        (dropout_3): Dropout(p=0, inplace=False)
      )
    )
    (encode_relu): ReLU()
    (decode_layers): PostLayers(
      (layers): Sequential(
        (fc_out_0): Linear(in_features=1536, out_features=1536, bias=True)
        (dropout_0): Dropout(p=0, inplace=False)
        (fc_out_1): Linear(in_features=1536, out_features=1536, bias=True)
        (dropout_1): Dropout(p=0, inplace=False)
        (fc_out_2): Linear(in_features=1536, out_features=1536, bias=True)
        (dropout_2): Dropout(p=0, inplace=False)
        (fc_out_3): Linear(in_features=1536, out_features=1536, bias=True)
        (dropout_3): Dropout(p=0, inplace=False)
      )
    )
  )
  (decoder): Decoder(
    (layers): PreLayers(
      (layers): Sequential(
        (fc_in_0): Linear(in_features=1536, out_features=192, bias=True)
        (dropout_0): Dropout(p=0, inplace=False)
      )
    )
    (linear): Linear(in_features=192, out_features=24, bias=True)
  )
)
----------------------------------------
Model Configuration:
{'adversarial_loss': 0,
 'decoder_layers': 1,
 'decoder_loss': 0.0001,
 'decoder_ratio': 8,
 'discriminator_layers': 0,
 'emb_dim': 1536,
 'encoder_layers': 4,
 'encoder_loss': 1,
 'encoder_ratio': 1,
 'message_length': 24,
 'use_discriminator': False}
----------------------------------------
…
